u: FNN(
  (scalinglayer): ScalingLayer()
  (layers): ModuleList(
    (0): ScalingLayer()
    (1): Linear(in_features=2, out_features=40, bias=True)
    (2): Tanh()
    (3): Linear(in_features=40, out_features=40, bias=True)
    (4): Tanh()
    (5): Linear(in_features=40, out_features=40, bias=True)
    (6): Tanh()
    (7): Linear(in_features=40, out_features=40, bias=True)
    (8): Tanh()
    (9): Linear(in_features=40, out_features=40, bias=True)
    (10): Tanh()
    (11): Linear(in_features=40, out_features=40, bias=True)
    (12): Tanh()
    (13): Linear(in_features=40, out_features=40, bias=True)
    (14): Tanh()
    (15): Linear(in_features=40, out_features=40, bias=True)
    (16): Tanh()
    (17): Linear(in_features=40, out_features=40, bias=True)
    (18): Tanh()
    (19): Linear(in_features=40, out_features=40, bias=True)
    (20): Tanh()
    (21): Linear(in_features=40, out_features=40, bias=True)
    (22): Tanh()
    (23): Linear(in_features=40, out_features=40, bias=True)
    (24): Tanh()
    (25): Linear(in_features=40, out_features=40, bias=True)
    (26): Tanh()
    (27): Linear(in_features=40, out_features=40, bias=True)
    (28): Tanh()
    (29): Linear(in_features=40, out_features=40, bias=True)
    (30): Tanh()
    (31): Linear(in_features=40, out_features=40, bias=True)
    (32): Tanh()
    (33): Linear(in_features=40, out_features=1, bias=True)
    (34): Identity()
  )
)
N: SparseBurger()
F: FNN(
  (scalinglayer): ScalingLayer()
  (layers): ModuleList(
    (0): ScalingLayer()
    (1): Linear(in_features=3, out_features=40, bias=True)
    (2): Tanh()
    (3): Linear(in_features=40, out_features=40, bias=True)
    (4): Tanh()
    (5): Linear(in_features=40, out_features=40, bias=True)
    (6): Tanh()
    (7): Linear(in_features=40, out_features=40, bias=True)
    (8): Tanh()
    (9): Linear(in_features=40, out_features=40, bias=True)
    (10): Tanh()
    (11): Linear(in_features=40, out_features=40, bias=True)
    (12): Tanh()
    (13): Linear(in_features=40, out_features=40, bias=True)
    (14): Tanh()
    (15): Linear(in_features=40, out_features=40, bias=True)
    (16): Tanh()
    (17): Linear(in_features=40, out_features=40, bias=True)
    (18): Tanh()
    (19): Linear(in_features=40, out_features=40, bias=True)
    (20): Tanh()
    (21): Linear(in_features=40, out_features=40, bias=True)
    (22): Tanh()
    (23): Linear(in_features=40, out_features=40, bias=True)
    (24): Tanh()
    (25): Linear(in_features=40, out_features=40, bias=True)
    (26): Tanh()
    (27): Linear(in_features=40, out_features=40, bias=True)
    (28): Tanh()
    (29): Linear(in_features=40, out_features=40, bias=True)
    (30): Tanh()
    (31): Linear(in_features=40, out_features=40, bias=True)
    (32): Tanh()
    (33): Linear(in_features=40, out_features=1, bias=True)
    (34): Identity()
  )
)